…
0, 'n_codes_per_lel': 256, 'code_level': 20, 'early_stop': 100, 'embedding_size': 128, 'hidden_size': 512, 'n_layers': 2, 'n_layers_cross': 2, 'dropout_prob': 0.4, 'dropout_prob_cross': 0.1, 'mask_ratio': 0.5, 'device': 'cuda:1', 'metrics': 'recall@5,ndcg@5,recall@10,ndcg@10', 'valid_metric': 'ndcg@10', 'log_dir': './logs/Industrial_and_Scientific/分析_长度为100_原模型', 'ckpt_dir': './myckpt/', 'resume': None, 'run_local_time': 'Jan-18-2026_03-05', 'save_file_name': 'Jan-18-2026_03-05-d3f421_mlm0.2_cl0.4_maskratio0.5_drop0.4_dpcross0.1'}
Sun 18 Jan 2026 03:05:55 INFO  MGFSRec(
  (query_code_embedding): Embedding(5121, 128, padding_idx=0)
  (item_text_embedding): ModuleList(
    (0-4): 5 x Embedding(25849, 128, padding_idx=0)
  )
  (qformer): CrossAttTransformer(
    (layer): ModuleList(
      (0-1): 2 x CrossAttTransformerLayer(
        (self_attention): MultiHeadAttention(
          (query): Linear(in_features=128, out_features=128, bias=True)
          (key): Linear(in_features=128, out_features=128, bias=True)
          (value): Linear(in_features=128, out_features=128, bias=True)
          (softmax): Softmax(dim=-1)
          (attn_dropout): Dropout(p=0.1, inplace=False)
          (out_linear): Linear(in_features=128, out_features=128, bias=True)
          (LayerNorm): LayerNorm((128,), eps=1e-12, elementwise_affine=True)
          (out_dropout): Dropout(p=0.1, inplace=False)
        )
        (cross_attention): MultiHeadAttention(
          (query): Linear(in_features=128, out_features=128, bias=True)
          (key): Linear(in_features=128, out_features=128, bias=True)
          (value): Linear(in_features=128, out_features=128, bias=True)
          (softmax): Softmax(dim=-1)
          (attn_dropout): Dropout(p=0.1, inplace=False)
          (out_linear): Linear(in_features=128, out_features=128, bias=True)
          (LayerNorm): LayerNorm((128,), eps=1e-12, elementwise_affine=True)
          (out_dropout): Dropout(p=0.1, inplace=False)
        )
        (feed_forward): FeedForward(
          (linear_1): Linear(in_features=128, out_features=512, bias=True)
          (linear_2): Linear(in_features=512, out_features=128, bias=True)
          (LayerNorm): LayerNorm((128,), eps=1e-12, elementwise_affine=True)
          (dropout): Dropout(p=0.1, inplace=False)
        )
      )
    )
  )
  (position_embedding): Embedding(100, 128)
  (transformer): Transformer(
    (layer): ModuleList(
      (0-1): 2 x TransformerLayer(
        (multi_head_attention): MultiHeadAttention(
          (query): Linear(in_features=128, out_features=128, bias=True)
          (key): Linear(in_features=128, out_features=128, bias=True)
          (value): Linear(in_features=128, out_features=128, bias=True)
          (softmax): Softmax(dim=-1)
          (attn_dropout): Dropout(p=0.4, inplace=False)
          (out_linear): Linear(in_features=128, out_features=128, bias=True)
          (LayerNorm): LayerNorm((128,), eps=1e-12, elementwise_affine=True)
          (out_dropout): Dropout(p=0.4, inplace=False)
        )
        (feed_forward): FeedForward(
          (linear_1): Linear(in_features=128, out_features=512, bias=True)
          (linear_2): Linear(in_features=512, out_features=128, bias=True)
          (LayerNorm): LayerNorm((128,), eps=1e-12, elementwise_affine=True)
          (dropout): Dropout(p=0.4, inplace=False)
        )
      )
    )
  )
  (dropout): Dropout(p=0.4, inplace=False)
  (layer_norm): LayerNorm((128,), eps=1e-12, elementwise_affine=True)
  (loss_fct): CrossEntropyLoss()
)
Sun 18 Jan 2026 03:23:38 INFO  [Epoch 0] training [time: 1063.52s, loss: 10.9763, mlm_loss: 6.8933, rec_loss: 9.3015, cl_loss: 0.7404, ]
Sun 18 Jan 2026 03:24:33 INFO  [Epoch 0] Saving current: ./myckpt/Industrial_and_Scientific/Jan-18-2026_03-05-d3f421_mlm0.2_cl0.4_maskratio0.5_drop0.4_dpcross0.1/best_model.pth
Sun 18 Jan 2026 03:24:33 INFO  [Epoch 0] Val Result: {'recall@5': 0.028949691085613415, 'ndcg@5': 0.018228712472492917, 'recall@10': 0.04577817005001471, 'ndcg@10': 0.02362800780097398}
…
